best_model.pth (torch, 249169 bytes, 36 tensors)

actor_log_std f4 [4]
0	0xbf8192d6	-1.0122936
1	0xbf8007b2	-1.0002348
2	0xbf817749	-1.0114528
3	0xbf7eaed6	-0.9948553

fc1.weight f4 [128, 13]
0	0xbeca5c55	-0.3952357
1	0x3e8083e2	0.2510062
2	0x3e60cc6b	0.2195298
3	0x3d814ba9	0.06313259
4	0xbc2ee6c6	-0.010675138
5	0xbd3773a6	-0.044788025
6	0xbe7fade9	-0.24968685
7	0x3df9d2ed	0.12198434
8	0x3d72c4df	0.059269782
9	0xbd087d42	-0.03332258
10	0x3de0afab	0.10971006
11	0xbe370a57	-0.17875038
12	0xbd185d7a	-0.03719852
13	0x3e264fb7	0.16241346
14	0xbd94db65	-0.07268409
15	0x3e3a47eb	0.18191497
16	0xbe471128	-0.19440138
17	0x3d8f87bb	0.070083104
18	0x3c559279	0.01303541
19	0x3e15ed00	0.1464119
20	0x3e04ca60	0.12967825
21	0x3e08b098	0.13348615
22	0x3d355cf7	0.04427811
23	0x3c38819d	0.011261371
24	0xbdcfddd3	-0.101497315
25	0x3e5deaa4	0.2167154
26	0x3df64da5	0.12026528
27	0x3ddc2d76	0.107508585
28	0x3e766d2a	0.2406508
29	0xbd293505	-0.04131033
30	0xbe742a01	-0.23844148
31	0x3ddb4979	0.10707373
32	0x3d7b1500	0.061299324
33	0xbb65dce9	-0.00350743
34	0x3d735fba	0.059417464
35	0x3d82ff65	0.06396369
36	0xbd8fa11a	-0.070131496
37	0xbdb71b8e	-0.089408025
38	0xbd832e53	-0.0640532
39	0xbb286dea	-0.002570028
40	0x3db8eec9	0.0902992
41	0x3da6abd4	0.08138242
42	0xbe3b7aa7	-0.18308507
43	0x3d5f8e37	0.054578986
44	0x3d57ef33	0.052718353
45	0xbe1c91af	-0.15289949
46	0xbde26391	-0.11054147
47	0xbdf03470	-0.11728752
48	0xbda25421	-0.079262026
49	0x3da96e77	0.082730226
50	0x3daf5c64	0.08562544
51	0x3d788e45	0.060682554
52	0xbdc0225f	-0.09381556
53	0x3e670e64	0.22564083
54	0xbd96c1bc	-0.07361171
55	0xbd9d074e	-0.07667409
56	0xbe03d4f6	-0.12874207
57	0xbe29acb3	-0.16569786
58	0xbdd8571c	-0.1056349
59	0xbddf63ba	-0.10907693
60	0xbcc4524d	-0.023965025
61	0x3e2953d8	0.1653589
62	0xbe451a97	-0.19248424
63	0x3e969371	0.29409364
64	0x3e68825a	0.22705975
65	0x3ddd5108	0.10806471
66	0x3dcbb902	0.09947397
67	0xbe39a379	-0.18128766
68	0x3e99bf7e	0.3002891
69	0x3d3dd6aa	0.046347298
70	0xbe42be26	-0.19017848
71	0x3e537db6	0.20653424
72	0xbd87fdef	-0.06640231
73	0xbe3829f3	-0.17984752
74	0xbd19df3f	-0.03756642
75	0x3da21513	0.07914176
76	0xbd474253	-0.048647236
77	0x3d1a5292	0.0376764
78	0x3e26622e	0.1624839
79	0x3d4441b8	0.047914237
80	0xbd284262	-0.041078933
81	0x3e6f81f9	0.23389424
82	0x3cd53ae9	0.026029067
83	0x3e63e43c	0.22255033
84	0xbbbddc7a	-0.005794105
85	0x3d295c4e	0.041347794
86	0x3dafdd77	0.08587163
87	0x3e83bca4	0.2572986
88	0x3d861438	0.06546825
89	0xba23255d	-0.0006223524
90	0x3e3863aa	0.18006769
91	0x3e0da121	0.13830997
92	0x3d9a02d5	0.075200714
93	0xbbb93cca	-0.0056529986
94	0xbe36b7bd	-0.17843528
95	0xbca0361f	-0.019557057
96	0xbdf952a9	-0.12173969
97	0xbdb01bfe	-0.08599089
98	0xbb38c48f	-0.002819333
99	0xbb819d90	-0.0039555505
100	0x3cad73df	0.021173416
101	0xbdfe8d23	-0.124292634
102	0x3e0a7ef1	0.13524987
103	0xbd39f64f	-0.045400914
104	0x3d00df2a	0.031462826
105	0xbd95863b	-0.07300993
106	0x3e6aad78	0.22917736
107	0x3d492a69	0.04911271
108	0x3d8f606a	0.070008114
109	0xbddae597	-0.10688322
110	0x3d5be14b	0.053681653
111	0x3d884058	0.066528976
112	0xbd6aadae	-0.05729454
113	0x3b776c99	0.0037753938
114	0x3d549db1	0.0519082
115	0x3e00a213	0.12561826
116	0xbe062c53	-0.13102846
117	0xbe12c1d3	-0.1433175
118	0xbdd3229e	-0.10309337
119	0x3e07646a	0.13221899
120	0xbdbbbf3e	-0.09167336
121	0x3da65d8f	0.08123314
122	0x3dcedde8	0.10100919
123	0x3deb7d1a	0.114984706
124	0x3d43fb80	0.04784727
125	0xbc3fc23c	-0.011704024
126	0xbdccb47a	-0.09995361
127	0x3c431f07	0.011909253
128	0x3db8dc0e	0.09026347
129	0xbd954977	-0.07289403
130	0xbe1fcab3	-0.15604667
131	0xbd4c5f06	-0.04989531
132	0xbe5d31cd	-0.21601029
133	0xbd191758	-0.037375778
134	0x3e1d40fb	0.1535682
135	0x3d2fd03d	0.0429232
136	0xbe1ec136	-0.15503392
137	0x3db21ebf	0.086972706
138	0x3d229fd1	0.039703194
139	0xbdca1993	-0.09868159
140	0x3e338656	0.17531714
141	0xbe00fc0d	-0.1259615
142	0x3e38ac4f	0.1803448
143	0x3e1ca1c4	0.15296084
144	0xbc4c915b	-0.012485827
145	0xbe1f61c6	-0.15564641
146	0xbe4eee04	-0.20207983
147	0x3def7800	0.1169281
148	0xbdea0968	-0.11427575
149	0x3d5a96fa	0.05336664
150	0xbd8a6ea6	-0.06759386
151	0x3e55d757	0.20882927
152	0xbe481e86	-0.19542894
153	0x3dffbb6e	0.12486921
154	0xbcff2ba4	-0.03114874
155	0xbe36cd50	-0.17851758
156	0x3d0e3391	0.034717146
157	0x3cb3ac31	0.021932693
158	0x3e24cc1e	0.1609349
159	0xbdc7761a	-0.09739323
160	0xbe122836	-0.14273152
161	0xbc05f052	-0.008174973
162	0xbd722886	-0.059120677
163	0x3e759b29	0.2398497
164	0x3c0529d7	0.008127651
165	0xbd7f3ffa	-0.062316872
166	0x3d0e0ae8	0.03467837
167	0x3eae656d	0.34061757
168	0x3dc1788a	0.09446819
169	0x3d98cc77	0.074608736
170	0xb96a38ce	-0.0002233714
171	0xbe4460a0	-0.19177485
172	0x3e150ccb	0.14555661
173	0x3dc1f5a4	0.0947068
174	0xbdbb14af	-0.091348045
175	0xbd355670	-0.044271886
176	0x3c9fdf4c	0.019515656
177	0x3e11c4a4	0.14235169
178	0x3b0a8c06	0.002114059
179	0xbe200142	-0.1562548
180	0x3da308fb	0.07960697
181	0xbdd39634	-0.10331383
182	0x3dae4f86	0.08511262
183	0xbe27a883	-0.16372876
184	0x3dabd996	0.083911106
185	0x3d6a53b8	0.057208747
186	0xbce65f0f	-0.0281215
187	0xbdd54772	-0.10414018
188	0xbe53e33f	-0.20692156
189	0x3d6802e3	0.056643378
190	0x3d8f6252	0.07001175
191	0xbdb1ff12	-0.08691229
192	0xbe064c74	-0.13115102
193	0x3cf7d189	0.030251281
194	0xbdbe6c22	-0.092979684
195	0x3db61367	0.088904195
196	0x3b6003f7	0.003418205
197	0x3d86552a	0.065592125
198	0x3dcfe83f	0.10151719
199	0x3ea1d361	0.31606582
200	0xbe40bb77	-0.18821512
201	0xbe493cd0	-0.19652104
202	0x3e3d3c70	0.18480086
203	0x3cbc78cc	0.02300682
204	0x3d6038ae	0.054741554
205	0xbd979d85	-0.07403091
206	0xbda366f7	-0.07978623
207	0x3dabcef9	0.08389086
208	0x3dc6aab2	0.09700526
209	0x3e0b9788	0.13632023
210	0xbda3cc7e	-0.07997988
211	0xbd71d067	-0.05903664
212	0x3d51fe4f	0.05126792
213	0x3caed4a7	0.021341635
214	0x3d3befd5	0.04588302
215	0x3d0c8d65	0.03431453
216	0xbd8dcea7	-0.069241814
217	0xbd3e2665	-0.046423335
218	0xbeaaa84e	-0.3333153
219	0x3cb33f32	0.02188072
220	0xbe461751	-0.19344832
221	0x3e0af416	0.13569674
222	0x3e2f2dd4	0.17107326
223	0x3d207bc1	0.03918052
224	0xbd83905a	-0.06424017
225	0xbe403c03	-0.18772893
226	0x3c891651	0.016734274
227	0x3e836bdc	0.25668228
228	0x3deba540	0.11506128
229	0x3daa7da0	0.08324742
230	0x3d8abad0	0.06773913
231	0x3d977e88	0.07397181
232	0x3e1d2c0b	0.15348832
233	0xbc941273	-0.018075204
234	0x3e17dde1	0.14830734
235	0xbcbba9f7	-0.022908194
236	0xbe364ec4	-0.17803484
237	0x3e79eb21	0.24406101
238	0xbdb50283	-0.0883837
239	0xbc2419e6	-0.01001594
240	0x3c19e7d7	0.009393654
241	0x3d0414fa	0.032246567
242	0x3d96d6b8	0.07365173
243	0x3e57a4ae	0.21058914
244	0x3b5b883f	0.0033497957
245	0xbe66cd9b	-0.2253937
246	0xbdba43ac	-0.09094939
247	0x3caa5f11	0.020797284
248	0xbdc2ddfd	-0.09514997
249	0x3aa277e3	0.0012395348
250	0x3d153c25	0.03643431
251	0xbc634b9c	-0.013873007
252	0x3b0bc037	0.0021324286
253	0xbcbf749c	-0.023371033
254	0x3e09af98	0.1344589
255	0xbd3f2ff5	-0.046676595

fc1.bias f4 [128]
0	0x3ba2d657	0.004969399
1	0x3be40087	0.0069580707
2	0xbc33affd	-0.010967252
3	0xbaf73f5f	-0.001886349
4	0xbb9a92dd	-0.0047172145
5	0xbafd0590	-0.0019304026
6	0xbadb339d	-0.0016723756
7	0xbc0964f6	-0.008385887
8	0xbc1667d0	-0.009180024
9	0x37e9d4c8	2.7874848e-05
10	0xbc0f8b45	-0.008761232
11	0xbb2c52e4	-0.0026294524
12	0xbb8accc6	-0.0042358367
13	0x3ad45b59	0.001620154
14	0xbc685c18	-0.014182113
15	0xbc0428e3	-0.008066389
16	0x3b071293	0.0020610436
17	0xbc384ddb	-0.011249031
18	0xbc112413	-0.008858698
19	0xbc510cce	-0.0127594005
20	0x3bd63d30	0.006538056
21	0x3b4ce61b	0.0031265083
22	0x3c3fa2b3	0.011696505
23	0xbbb296da	-0.005450112
24	0x3c78c3df	0.015183418
25	0xbc3fe6d8	-0.011712752
26	0x3c7639b9	0.015028411
27	0xbc3abfbf	-0.011398255
28	0x39c72a53	0.00037987772
29	0xbc11457f	-0.008866667
30	0x3b558985	0.0032583189
31	0xbc8319ad	-0.016003454
32	0xbbcd40eb	-0.0062638423
33	0xbbc21cf9	-0.005923864
34	0xbab0f41f	-0.0013500488
35	0xbbd0c818	-0.0063715093
36	0x3c0c28c3	0.00855464
37	0xbc025b2e	-0.007956309
38	0x387aa744	5.9760423e-05
39	0xbbf303ce	-0.007416225
40	0xbb775670	-0.003774073
41	0x3b82f745	0.003996762
42	0x393f9bf2	0.00018273274
43	0xbb9cd6ac	-0.004786333
44	0x3ad4ae16	0.0016226198
45	0x3b4a7a71	0.0030895735
46	0x3b992faf	0.004674874
47	0x3b3ee888	0.0029130299
48	0xb9d8a510	-0.00041321712
49	0x3b39f80e	0.0028376612
50	0x3b957a96	0.0045617325
51	0x3bd60b19	0.0065320847
52	0x3b6accfc	0.0035827747
53	0xbbea5234	-0.0071509127
54	0x3c4ae0c1	0.012382687
55	0xbbd6bc49	-0.006553207
56	0x3bd57940	0.0065146983
57	0xbbef015f	-0.0072938646
58	0x3bf76c5f	0.0075507606
59	0x3bcdac79	0.006276664
60	0xbbaa9a65	-0.0052063935
61	0xbb36a478	-0.0027869027
62	0x3a4b0493	0.0007744517
63	0xbb995ebf	-0.004680484
64	0x3b93db6a	0.00451224
65	0x3c258a7c	0.010103818
66	0xbb2164d2	-0.0024626744
67	0x3c5e8f44	0.013583962
68	0x3c4755a8	0.012166418
69	0xbb674fee	-0.0035295445
70	0xbbad3458	-0.005285781
71	0x3bf03fa4	0.0073318053
72	0xbbdc9bd4	-0.0067324433
73	0x3c033564	0.008008335
74	0x3c3e4298	0.011612557
75	0xbba985d9	-0.0051734266
76	0x3bb68abb	0.005570737
77	0x3bf7b8c0	0.0075598657
78	0x3c2f7681	0.010709406
79	0xbbff3c0f	-0.007789142
80	0xbba4163a	-0.0050075324
81	0x3b289620	0.0025724247
82	0xbbf5f41a	-0.007505906
83	0xbc02f8fb	-0.007993932
84	0xbb6f23ba	-0.00364898
85	0xb9963c20	-0.00028655026
86	0x3c36fa81	0.011168123
87	0x3b81b8b3	0.0039587854
88	0x3c0be100	0.008537531
89	0xbc61c2c4	-0.013779346
90	0xbaaed1c6	-0.0013337664
91	0xbb103ad2	-0.0022007716
92	0xbb4fa3cd	-0.0031683326
93	0xbbc0d16c	-0.00588434
94	0x3c67b0c0	0.014141262
95	0x3aa031a1	0.0012221822
96	0xbb9f9c8a	-0.004870956
97	0x3aa25f18	0.0012387959
98	0xb9d26f9c	-0.00040137477
99	0x3c1c9b56	0.009558519
100	0x3a303d14	0.00067229685
101	0xbbe8be1b	-0.0071027405
102	0xbc364dee	-0.011126978
103	0x3961fdf0	0.00021552271
104	0xbc1e3ace	-0.009657575
105	0x3c5d40d7	0.013504229
106	0x3b3ada49	0.0028511456
107	0xbbd76ce1	-0.0065742587
108	0xbc3a5d19	-0.011374735
109	0xbb1a6d1d	-0.0023563572
110	0xbb8d3c5a	-0.004310173
111	0x3ba99383	0.0051750555
112	0xbbca539b	-0.0061745173
113	0xbc3867a7	-0.011255181
114	0x3b274c34	0.0025527598
115	0x3be6ed24	0.0070473123
116	0xbc13e4e7	-0.009026743
117	0x3b3d223f	0.0028859524
118	0xbc6c6ba0	-0.014429957
119	0xbb8f9af5	-0.004382486
120	0x3b386132	0.0028134105
121	0xbb7f2382	-0.0038931076
122	0x3b2f388e	0.002673659
123	0x3beec745	0.0072869384
124	0x3c2dbee2	0.010604592
125	0x3be90f52	0.007112422
126	0xba0e4317	-0.0005426867
127	0xbc1de6cf	-0.009637549

ln1.weight f4 [128]
0	0x3f807f8a	1.0038922
1	0x3f808fa1	1.0043832
2	0x3f7db86e	0.9910954
3	0x3f7f695c	0.9977014
4	0x3f7f232b	0.9966304
5	0x3f7dba2a	0.9911219
6	0x3f7fbf68	0.9990144
7	0x3f7ced50	0.9879961
8	0x3f7c8092	0.9863368
9	0x3f7e74b8	0.9939685
10	0x3f7d713b	0.990009
11	0x3f803724	1.0016828
12	0x3f7ea85f	0.99475664
13	0x3f809ce1	1.0047876
14	0x3f7d7170	0.99001217
15	0x3f7f81db	0.9980752
16	0x3f802cbf	1.0013655
17	0x3f7eead2	0.9957706
18	0x3f7fd1a5	0.9992927
19	0x3f7cd77e	0.98766315
20	0x3f80cbf2	1.0062239
21	0x3f80e0f3	1.0068649
22	0x3f81072a	1.0080311
23	0x3f7fe34e	0.99956214
24	0x3f820e6e	1.0160654
25	0x3f7e9006	0.9943851
26	0x3f8204af	1.0157679
27	0x3f7da6be	0.99082553
28	0x3f7f1b1d	0.99650747
29	0x3f7d9cc0	0.99067307
30	0x3f800883	1.0002598
31	0x3f7e648a	0.9937216
32	0x3f7dfed0	0.9921694
33	0x3f7f4df2	0.9972831
34	0x3f808ea3	1.0043529
35	0x3f7f0944	0.99623513
36	0x3f81b43a	1.0133126
37	0x3f7e8785	0.99425536
38	0x3f81cf2e	1.0141351
39	0x3f7e3911	0.99305826
40	0x3f7e833d	0.99419004
41	0x3f80fa27	1.007634
42	0x3f80c442	1.0059893
43	0x3f807760	1.003643
44	0x3f809571	1.0045606
45	0x3f804ce5	1.0023466
46	0x3f80c9b4	1.0061555
47	0x3f812075	1.008803
48	0x3f8048b8	1.0022192
49	0x3f806bef	1.0032939
50	0x3f7f552b	0.9973933
51	0x3f80a91a	1.0051606
52	0x3f7ffc1b	0.9999406
53	0x3f7ffbd6	0.99993646
54	0x3f8104b5	1.0079561
55	0x3f7e396e	0.9930638
56	0x3f8084ae	1.0040491
57	0x3f7f5dfa	0.9975277
58	0x3f801b54	1.000834
59	0x3f800902	1.0002749
60	0x3f80231f	1.0010718
61	0x3f801efb	1.0009454
62	0x3f801394	1.0005975
63	0x3f7ef065	0.9958556
64	0x3f806638	1.0031195
65	0x3f815cbc	1.0106425
66	0x3f80d6e1	1.0065576
67	0x3f805f8d	1.002916
68	0x3f814d63	1.0101742
69	0x3f808e66	1.0043457
70	0x3f7d2168	0.988791
71	0x3f81053f	1.0079726
72	0x3f7e11c0	0.99245834
73	0x3f80acf6	1.0052783
74	0x3f80e204	1.0068974
75	0x3f801102	1.000519
76	0x3f813bd4	1.0096383
77	0x3f8152e8	1.0103426
78	0x3f81fb00	1.0154724
79	0x3f7e44d2	0.9932376
80	0x3f7f9458	0.9983573
81	0x3f7f2a9a	0.9967438
82	0x3f8001fc	1.0000606
83	0x3f7de249	0.9917341
84	0x3f7f6e26	0.9977745
85	0x3f7f702f	0.99780554
86	0x3f821c5c	1.0164905
87	0x3f811d5f	1.0087088
88	0x3f816158	1.0107832
89	0x3f7db386	0.99102056
90	0x3f80384e	1.0017183
91	0x3f805daa	1.0028584
92	0x3f80e959	1.0071212
93	0x3f7e3b3a	0.9930912
94	0x3f8100d1	1.0078374
95	0x3f8049d4	1.002253
96	0x3f7f00d4	0.9961064
97	0x3f80e73b	1.0070566
98	0x3f7f68a2	0.9976903
99	0x3f7fbe6d	0.9989994
100	0x3f7fbcb7	0.9989733
101	0x3f7ebb68	0.9950471
102	0x3f7d85d1	0.9903231
103	0x3f809078	1.0044088
104	0x3f7e3644	0.9930155
105	0x3f8112c3	1.0083851
106	0x3f810707	1.008027
107	0x3f7e41e2	0.9931928
108	0x3f7eee3a	0.99582255
109	0x3f8005e8	1.0001802
110	0x3f7e68f2	0.99378884
111	0x3f80bed3	1.0058235
112	0x3f7f1947	0.99647945
113	0x3f7d7df7	0.9902033
114	0x3f80cb57	1.0062054
115	0x3f802443	1.0011066
116	0x3f7eb5bb	0.9949605
117	0x3f7fddbf	0.9994773
118	0x3f7dbe7c	0.9911878
119	0x3f7db27f	0.9910049
120	0x3f80228e	1.0010545
121	0x3f7edb38	0.9955325
122	0x3f80ff30	1.0077877
123	0x3f80aece	1.0053346
124	0x3f80f900	1.0075989
125	0x3f814ab4	1.0100923
126	0x3f803c34	1.0018373
127	0x3f7e7d2c	0.9940975

ln1.bias f4 [128]
0	0x3b7e6857	0.0038819516
1	0x3bc71a97	0.006076168
2	0xbc0f2920	-0.008737832
3	0xbb27ccca	-0.0025604242
4	0xbb80e416	-0.00393344
5	0xbb931d21	-0.0044895564
6	0x3ada1bee	0.0016640404
7	0xbc2c95de	-0.010533778
8	0xbc6b0286	-0.014343863
9	0xbaf29a73	-0.0018509164
10	0xbbfb474f	-0.0076684128
11	0xb8c503de	-9.394412e-05
12	0xbb95be69	-0.004569818
13	0x3bb4e5c1	0.005520553
14	0xbc4b0349	-0.01239092
15	0xbbafc19c	-0.005363656
16	0x3b6483b0	0.003486853
17	0xbbdab711	-0.0066746552
18	0xbb56b3b8	-0.003276093
19	0xbc5ff5bb	-0.013669427
20	0x3a2f84ad	0.00066954904
21	0x3a912746	0.0011074326
22	0x3c14359a	0.009045983
23	0xb9c70a26	-0.000379638
24	0x3c402c38	0.011729293
25	0xbc05b562	-0.008160921
26	0x3c463889	0.01209844
27	0xbc0371fe	-0.008022783
28	0xbb122884	-0.0022301981
29	0xbbe20957	-0.006898086
30	0xbad25947	-0.0016048335
31	0xbc4ee052	-0.012626724
32	0xbbd124d7	-0.0063825655
33	0xbb1d6c6b	-0.002402092
34	0x3b47c287	0.0030480938
35	0xbb8b1ae5	-0.0042451494
36	0x3bb61e90	0.0055578426
37	0xbb88d356	-0.004175584
38	0x3bdf2ef8	0.006811019
39	0xbbb12af6	-0.0054067327
40	0xbbb712b7	-0.005586948
41	0x3b2d913c	0.0026484272
42	0x3b06ed29	0.0020588136
43	0xba8b2e96	-0.0010618742
44	0x3bb1dc7d	0.0054278956
45	0x3bf51407	0.007479194
46	0x3aac90a0	0.001316566
47	0x3bfb3056	0.007665674
48	0xbaf69cbe	-0.0018815023
49	0x3b4cfef3	0.0031279891
50	0x3be5705d	0.00700192
51	0x3c0ee327	0.0087211495
52	0x3b8d60c1	0.0043145125
53	0xbb5ecd1f	-0.0033996773
54	0x3c1e95ab	0.009679238
55	0xbb757210	-0.003745202
56	0x3bb1a1aa	0.005420883
57	0xbbb5f78f	-0.005553193
58	0x3b19cacd	0.0023466826
59	0x3ad34bb1	0.001612058
60	0x3a8e580e	0.0010859983
61	0x3a75a9d3	0.0009371314
62	0x3b707d95	0.0036695946
63	0xbaa8ebfb	-0.001288771
64	0x3b17f325	0.0023185697
65	0x3c2291b7	0.009922436
66	0x398c26c1	0.00026731755
67	0x3bcd3b78	0.0062631927
68	0x3c3b366e	0.011426551
69	0x3ae1423a	0.0017185875
70	0xbbebb23d	-0.0071928785
71	0x3bdcfc63	0.006743954
72	0xbb73b0f2	-0.0037184325
73	0x3be5946a	0.0070062177
74	0x3bc8039c	0.006103946
75	0x3a9ade5f	0.0011815539
76	0x3c19f542	0.009396853
77	0x3be10fe6	0.0068683503
78	0x3c136cec	0.008998137
79	0xbb96cc23	-0.0046019717
80	0xbb536499	-0.0032256006
81	0x3a197242	0.00058535126
82	0xbb3ec992	-0.0029111844
83	0xbbf81868	-0.007571269
84	0xbb3702a2	-0.0027925153
85	0xb9079a7f	-0.00012932158
86	0x3c286661	0.010278315
87	0x3bb9d725	0.005671399
88	0x3c00f90d	0.007871878
89	0xbc2010fb	-0.009769673
90	0xb92bf3d8	-0.0001639867
91	0xbadabe68	-0.0016688826
92	0xb913058b	-0.00014021077
93	0xbbbeb72e	-0.0058201766
94	0x3c13620a	0.008995542
95	0xb9aee986	-0.00033361855
96	0xbb5270b0	-0.0032110624
97	0x3b2e1e2c	0.0026568277
98	0xbb6e8ef9	-0.0036401136
99	0x3b57fefe	0.0032958384
100	0xb9bce98b	-0.00036032157
101	0xbbf5536d	-0.007486752
102	0xbc11c4d7	-0.008897028
103	0x3a5be2ab	0.0008387963
104	0xbbdea55f	-0.006794616
105	0x3bfa5fdd	0.0076408223
106	0x3b3490f1	0.0027552212
107	0xbbeb1f62	-0.007175372
108	0xbc1e4a42	-0.009661259
109	0xba5be3f6	-0.0008388156
110	0xbb718583	-0.003685326
111	0x3b5606f9	0.0032657965
112	0xbbc2e9bd	-0.005948274
113	0xbc2043dd	-0.009781805
114	0x3b5ab852	0.0033374024
115	0x3afa1b6c	0.0019081659
116	0xbc001741	-0.007818044
117	0x3bd65b99	0.006541681
118	0xbc43b858	-0.011945806
119	0xbc099c84	-0.008399133
120	0xba59dc92	-0.00083107606
121	0xbb3306e7	-0.0027317347
122	0x3c2538d8	0.010084353
123	0x3b5ae1a4	0.0033398652
124	0x3c1c7a34	0.00955062
125	0x3c247daa	0.010039726
126	0x3b31df12	0.0027141017
127	0xbc056ccd	-0.008143616

fc2.weight f4 [128, 128]
0	0x3e00c6cc	0.12575835
1	0x3de68a40	0.11256838
2	0x3d1887eb	0.037238996
3	0xbde429ef	-0.11140811
4	0x3c0cdaf4	0.008597124
5	0xbddc4280	-0.10754871
6	0xbea0a8d5	-0.3137881
7	0x3d9b7d86	0.07592301
8	0x3e11c91a	0.1423687
9	0xbe4bba12	-0.19895199
10	0x3d58735c	0.05284439
11	0xbdc3a4b4	-0.09552899
12	0x3e427d48	0.18993104
13	0x3e02bc6f	0.12767194
14	0xbd0d86c0	-0.034552336
15	0x3e8aa057	0.27075455
16	0x3e558d1f	0.20854615
17	0xbe16ac61	-0.14714195
18	0x3e2bce98	0.16778028
19	0xbce8b7e0	-0.028407991
20	0x3ccea9a3	0.025227373
21	0x3e0bf960	0.13669348
22	0xbe633744	-0.22189051
23	0x3d41dd5e	0.047330253
24	0xbb9822d9	-0.004642826
25	0x3c3adc8b	0.011405121
26	0x3e79fb08	0.24412167
27	0xbcccc32e	-0.024995413
28	0xbe0559a2	-0.13022473
29	0xbda46b77	-0.0802831
30	0xbe1eb3f5	-0.15498336
31	0xbd815267	-0.06314545
32	0xbe207253	-0.15668611
33	0xbe302171	-0.17200257
34	0x3dbf5b5e	0.09343599
35	0xbe26bffa	-0.16284171
36	0x3dbd9b9c	0.09258196
37	0xbe2dd087	-0.16974078
38	0xbc927b4e	-0.017881062
39	0x3e19ef3a	0.15032664
40	0xbd8bfe06	-0.068355605
41	0xbdadce92	-0.08486666
42	0x3cae1cd6	0.021253984
43	0xbe210309	-0.15723814
44	0x3cc243e3	0.023714012
45	0xbc87ceba	-0.016578067
46	0x3d484adb	0.048899513
47	0xbdbc961c	-0.092083186
48	0xbe02bb75	-0.12766822
49	0xbde44006	-0.11145024
50	0x3cb4f48c	0.022089265
51	0x3e3e4b7e	0.18583485
52	0x3a74a9e1	0.0009333175
53	0xbe804923	-0.250558
54	0x3b08a8fe	0.002085268
55	0xbe8614bd	-0.26187697
56	0xbd676538	-0.056493014
57	0xbe095b03	-0.13413624
58	0x3d16cc32	0.03681583
59	0xbca23498	-0.01980047
60	0x3de72cba	0.11287828
61	0xbc81bd79	-0.015837418
62	0xbd3a8924	-0.045540944
63	0x3dc2fafc	0.09520528
64	0x3e903e13	0.2817236
65	0xbe29fd81	-0.1660061
66	0x3e1f3cf6	0.15550599
67	0x3d8baf27	0.06820517
68	0xbd73a447	-0.05948284
69	0xbd9d6b31	-0.07686461
70	0xbd14cd70	-0.036328733
71	0xbdac4446	-0.084114596
72	0x3c72c8f5	0.01481842
73	0xbc7814a1	-0.015141637
74	0xbe6407a3	-0.22268538
75	0xbe495336	-0.19660649
76	0xbd19f0ee	-0.037583284
77	0x3df13a2a	0.11778672
78	0x3d6125d7	0.054967728
79	0x3e0df448	0.13862717
80	0x3b74bab6	0.0037342734
81	0x3cdada6d	0.026715482
82	0xbd179ac9	-0.03701285
83	0xbb854fc4	-0.0040683467
84	0x3d96d348	0.073645175
85	0x3e65689f	0.22403191
86	0x3dbc6c12	0.092003
87	0xbdc3c996	-0.09559934
88	0x3e471eb0	0.194453
89	0xbc1e4109	-0.00965906
90	0x3d00a5a2	0.03140796
91	0xbe168900	-0.14700699
92	0xbccd1f1c	-0.025039248
93	0xbe4636b9	-0.19356813
94	0x3ba5add7	0.0050561237
95	0x3e0b7074	0.13617116
96	0x3d8b5894	0.06804004
97	0x3d92bbc9	0.071647234
98	0x3d42b8a5	0.047539372
99	0xbe2c4de9	-0.16826595
100	0xbcfc11bb	-0.030770173
101	0x3d828c24	0.06374386
102	0x3d79ed82	0.06101752
103	0x3c21dd53	0.009879428
104	0x3d47dba6	0.048793457
105	0x3de9d289	0.114171095
106	0x3e1ffabb	0.1562299
107	0xbe15b34b	-0.14619176
108	0x3d60a1bf	0.054841753
109	0x3be97403	0.0071244254
110	0xbeb973d0	-0.3622117
111	0xbe378f7e	-0.17925832
112	0xbdbe40f1	-0.0928973
113	0xbe0858f1	-0.13315178
114	0x3e39f277	0.18158899
115	0xbcba1036	-0.022712808
116	0x3da576dc	0.08079311
117	0x3c6a0e78	0.014285676
118	0xbda38207	-0.07983785
119	0xbe098102	-0.13428119
120	0x3d0b183c	0.03395866
121	0xbe2b55e8	-0.1673199
122	0xbdafac58	-0.08577794
123	0xbe26af7b	-0.16277878
124	0x3dafdd50	0.08587134
125	0x3cbb7b2f	0.022885887
126	0xbdcdbdb0	-0.10045946
127	0xbd43a459	-0.047764156
128	0xbdf649fe	-0.12025832
129	0x3d27966b	0.040914934
130	0xbd73b0cb	-0.059494775
131	0x3db48bb5	0.088157095
132	0x3d90f700	0.070783615
133	0xbe65a2cb	-0.22425382
134	0xbd3fd476	-0.046833478
135	0xbcbde501	-0.023180487
136	0x3d4b2ffa	0.0496063
137	0xbde069a4	-0.10957649
138	0x3d03af95	0.03214987
139	0x3e7eadb3	0.24870948
140	0x3c166b55	0.009180863
141	0x3eab1dd9	0.3342121
142	0xbe2f4e35	-0.17119677
143	0x3cd6cd7d	0.026221031
144	0xbdf79ead	-0.12090812
145	0x3d842fcb	0.06454428
146	0xbdbdcd5e	-0.09267686
147	0x3e5dbb65	0.21653517
148	0xbda8aa69	-0.08235628
149	0xbdb7c03c	-0.08972213
150	0x3c9dc0a9	0.019256907
151	0xbd56a0fb	-0.052399617
152	0x3d791581	0.060811523
153	0x3c6157f2	0.013753878
154	0x3ea0131b	0.31264576
155	0x3dc6421b	0.09680577
156	0x3e0b226f	0.13587354
157	0x3e40e311	0.18836619
158	0x3dc6e477	0.09711545
159	0xbd8d7b53	-0.06908288
160	0xbcf0adfb	-0.029379835
161	0x3db4e650	0.08832991
162	0x3d983fde	0.07434057
163	0x3cf04e9e	0.029334363
164	0xbdfa5431	-0.122230895
165	0x3d5bbe80	0.05364847
166	0x3e933cdb	0.28757367
167	0x3c2b2327	0.010445393
168	0xbda70100	-0.081544876
169	0x3d6c938f	0.05775791
170	0x3e184dcd	0.14873429
171	0x3da1ad32	0.078943625
172	0xbd66e4be	-0.05637049
173	0xbe024107	-0.12720118
174	0x3e4da728	0.20083296
175	0xbe240e02	-0.16020969
176	0x3b329a0a	0.002725246
177	0x3d8a18a7	0.06742983
178	0x3d9eabb1	0.07747591
179	0xbea42b4d	-0.32064286
180	0x3e1d470e	0.15359136
181	0xbe96cc8a	-0.29452926
182	0xbdc45568	-0.095866024
183	0xbe34a98f	-0.17642806
184	0xbccec06a	-0.025238235
185	0x3cf6eab9	0.030141221
186	0x3db74a95	0.08949772
187	0x3dfc0a01	0.123065956
188	0x3e25fa4d	0.16208763
189	0xbdfef5a3	-0.12449195
190	0xbce0530c	-0.02738335
191	0xbd4b36bf	-0.049612757
192	0x3cab0f25	0.020881245
193	0xbc285b5d	-0.010275689
194	0x3e0f66d6	0.14004073
195	0xbe135666	-0.14388427
196	0xbd660715	-0.056159098
197	0x3b04b018	0.0020246562
198	0x3c39229e	0.011299757
199	0xbe5e282b	-0.2169501
200	0x3a83071a	0.0009996623
201	0x3e0f9646	0.14022169
202	0xbdef2948	-0.11677796
203	0x3ddddd68	0.108332455
204	0x3e45a478	0.19301021
205	0x3d31e2ea	0.043429293
206	0xbe18c4c5	-0.14918812
207	0xbd3d5862	-0.046226867
208	0xbd37cc4a	-0.04487256
209	0xbd2ad5f3	-0.041707944
210	0xbbb21e23	-0.0054357215
211	0x3d8b7273	0.06808939
212	0xbe138c3c	-0.14408964
213	0xbe3b2fce	-0.18279955
214	0x3cd9b085	0.026573429
215	0x3df7df34	0.121031195
216	0xbd5751f3	-0.052568387
217	0x3e3bf455	0.18354924
218	0x3d5af644	0.053457513
219	0x3d3482f5	0.044070203
220	0x3e00140e	0.1250765
221	0xbc3cce37	-0.011523775
222	0xbb0c87e2	-0.0021443297
223	0x3da2b263	0.07944181
224	0xbe83506a	-0.2564729
225	0x3d7db2b3	0.061938
226	0xbd077109	-0.033066783
227	0xbcec912f	-0.028877823
228	0x3dd9cd2f	0.10634839
229	0x3da97f47	0.08276229
230	0xbe10cfef	-0.1414182
231	0x3ddad4f6	0.1068515
232	0x39b81fd7	0.00035118937
233	0x3d213792	0.039359637
234	0xbd94833b	-0.07251593
235	0xbd06acfb	-0.03287981
236	0x3e462cb8	0.19352996
237	0xbd0c2d2f	-0.034222778
238	0xbd1e19ea	-0.038598932
239	0xbde9f6aa	-0.114240006
240	0x3d79c277	0.06097647
241	0x3e19b8c1	0.15011884
242	0xbe38df45	-0.1805392
243	0xbd8b7f84	-0.06811431
244	0xbc8b1ca0	-0.016981423
245	0x3dc828e3	0.097734235
246	0xbeb25a64	-0.34834588
247	0x3df54641	0.119762905
248	0x3dc0c358	0.09412259
249	0x3e11b0fe	0.14227673
250	0x3dc6b93e	0.09703301
251	0x3c3279ab	0.010893266
252	0xbe48bb16	-0.19602618
253	0x3df91ff2	0.12164296
254	0xbe300e04	-0.17192847
255	0xbc808ead	-0.015693033

fc2.bias f4 [128]
0	0xbaeb3168	-0.0017943801
1	0x3bb08b3f	0.005387693
2	0x3c69af93	0.014263052
3	0x3a41493b	0.0007373278
4	0xbaad00d6	-0.0013199102
5	0xbb59aa8e	-0.003321323
6	0xbb9c0d31	-0.0047623147
7	0xbbc39ff9	-0.005969998
8	0x3aa67b1d	0.0012701486
9	0x39a09cb5	0.00030634334
10	0xbc01b6c7	-0.007917113
11	0x3c17dbec	0.009268742
12	0x3b70e8fb	0.003675996
13	0x3a697e81	0.0008907095
14	0xbbb8193b	-0.005618242
15	0x3ca80680	0.020510912
16	0xbb8d0420	-0.0043034703
17	0x3b8f9712	0.0043820227
18	0x3afeaa50	0.0019429419
19	0xb9a6f535	-0.0003184468
20	0x3b955f27	0.004558462
21	0xb95cf5bd	-0.0002107238
22	0x3ba8e6e3	0.005154477
23	0x3b16e241	0.0023023041
24	0x3c20fa44	0.009825293
25	0xbbeb9a27	-0.0071900073
26	0x3bb4e79f	0.0055207754
27	0xbc15955a	-0.0091298465
28	0x3ba82a02	0.005131961
29	0xbb09ddf7	-0.0021036842
30	0x3c2a6f76	0.010402551
31	0x3bb8e59a	0.005642605
32	0xbb5ea92e	-0.003397535
33	0xbc159349	-0.009129354
34	0xbaba0a76	-0.0014193791
35	0xbad30460	-0.0016099326
36	0xbc6b26a1	-0.014352472
37	0xba0098bb	-0.0004905571
38	0xbb846738	-0.004040625
39	0x3a895e0e	0.0010480301
40	0x3b89666b	0.0041931174
41	0x3be8a1c3	0.0070993616
42	0x3bddd4f8	0.0067697726
43	0x3b50e539	0.0031874909
44	0xbc8cce33	-0.017188167
45	0xbbcc1125	-0.0062276297
46	0x3c02df57	0.007987819
47	0x39e0092c	0.00042731443
48	0x3bde8501	0.0067907576
49	0x3c12ef2c	0.008968156
50	0xbc0ae0af	-0.00847642
51	0xbc24ca2e	-0.010057969
52	0x3c043f26	0.008071696
53	0x3b946396	0.004528473
54	0xbc557450	-0.013028219
55	0xbc2dd3e5	-0.010609602
56	0x3b89c356	0.004204194
57	0xbb2b91e6	-0.0026179492
58	0xbc3af941	-0.011411966
59	0x3b17ebf0	0.0023181401
60	0xbc6d2b96	-0.014475724
61	0x3c2d9342	0.010594191
62	0x3bae42b2	0.0053180093
63	0x3a966901	0.0011475385
64	0xbc2c4c18	-0.010516189
65	0xbc176413	-0.009240168
66	0xbb6b63b2	-0.0035917577
67	0xbc418b2d	-0.011812967
68	0xbc67ca0f	-0.014147296
69	0x3c32e00d	0.010917676
70	0x3b2266ed	0.0024780587
71	0x3b8da5e4	0.004322754
72	0x3c8c5f81	0.017135384
73	0x3ab2cd68	0.0013641538
74	0xbaf6dd44	-0.0018834253
75	0x3ab64b7c	0.0013907994
76	0x3b0f83fb	0.0021898735
77	0x3ba7f225	0.0051253014
78	0xbc1d4135	-0.009598066
79	0xbbb16b50	-0.005414404
80	0x3ad47b70	0.0016211104
81	0x3c39d300	0.01134181
82	0x3ad9a98f	0.0016606319
83	0x3b3ecbbc	0.0029113134
84	0xbbec45cb	-0.0072104684
85	0x3c923e3f	0.017851947
86	0xbc44f029	-0.012020149
87	0x3c0dc194	0.00865211
88	0xbc2aef7e	-0.010433076
89	0xbc2b90a1	-0.010471494
90	0x3ae2cae4	0.0017302898
91	0x3c593759	0.013257825
92	0x3bf9ca92	0.007623025
93	0x3c07240a	0.0082483385
94	0xbaf13577	-0.0018402775
95	0x3bb9771d	0.0056599514
96	0x3a97515b	0.0011544632
97	0xb9c147fa	-0.00036865455
98	0x39e47315	0.00043573292
99	0x3a549c30	0.0008110432
100	0x3c4c2599	0.012460136
101	0x3a6bb448	0.00089914026
102	0x3b086008	0.0020809192
103	0x3c1dd758	0.0096338615
104	0xbbae937c	-0.00532764
105	0x3b37b3fb	0.002803086
106	0x3c0f8696	0.008760115
107	0x3ba357c0	0.004984826
108	0x3b9a1477	0.0047021466
109	0xbaca60bb	-0.0015440205
110	0x3c1b2873	0.009470093
111	0x3ab6f60e	0.0013958828
112	0x3b5676e1	0.0032724666
113	0x3aa68275	0.0012703674
114	0x3c7c559b	0.015401269
115	0x3b4ca821	0.0031228142
116	0xbb71b2df	-0.0036880297
117	0xbba96e21	-0.005170599
118	0xba7bbbe1	-0.0009602886
119	0xbc107eea	-0.008819321
120	0xbbe8d2ef	-0.0071052234
121	0xbb8958dd	-0.0041915015
122	0xbb1c6016	-0.0023860983
123	0x3c21b612	0.009870069
124	0x3c3aa077	0.011390797
125	0xbc153b02	-0.009108307
126	0x3be9966e	0.0071285283
127	0xbbbb6f2b	-0.0057200394

ln2.weight f4 [128]
0	0x3f7fd054	0.9992726
1	0x3f8136b2	1.0094817
2	0x3f82b376	1.0211017
3	0x3f80bab4	1.0056977
4	0x3f7f0db6	0.99630296
5	0x3f7f3fcf	0.9970674
6	0x3f805ca8	1.0028276
7	0x3f7f38ae	0.9969586
8	0x3f7f29ef	0.9967336
9	0x3f807ac2	1.0037463
10	0x3f7f3312	0.996873
11	0x3f7f4f87	0.99730724
12	0x3f812c26	1.0091598
13	0x3f815690	1.0104542
14	0x3f7fd05f	0.99927324
15	0x3f802b25	1.0013167
16	0x3f7fc4b5	0.99909526
17	0x3f80d2cd	1.0064331
18	0x3f80788b	1.0036787
19	0x3f7ef3e0	0.99590874
20	0x3f817412	1.0113547
21	0x3f7f1947	0.99647945
22	0x3f81396d	1.009565
23	0x3f80b5d4	1.005549
24	0x3f830e82	1.0238802
25	0x3f7fea4b	0.9996688
26	0x3f80b5cd	1.0055481
27	0x3f7da30d	0.9907692
28	0x3f80fe03	1.0077518
29	0x3f7ecea1	0.9953404
30	0x3f814ee8	1.0102205
31	0x3f803a8b	1.0017866
32	0x3f80b294	1.0054498
33	0x3f7e8363	0.9941923
34	0x3f7f7af2	0.99796975
35	0x3f7f362f	0.9969205
36	0x3f8263a8	1.0186663
37	0x3f8115a3	1.0084728
38	0x3f7f9ad8	0.9984565
39	0x3f810765	1.0080382
40	0x3f80a80c	1.0051284
41	0x3f82eb5a	1.0228074
42	0x3f80a2e2	1.0049708
43	0x3f81e54e	1.0148103
44	0x3f7e9a75	0.9945443
45	0x3f7f8457	0.9981131
46	0x3f81e53a	1.0148079
47	0x3f7f32d3	0.99686927
48	0x3f819fa1	1.012684
49	0x3f7f885b	0.99817437
50	0x3f80b54b	1.0055326
51	0x3f7e5ee4	0.9936354
52	0x3f8218ca	1.0163815
53	0x3f81d921	1.0144387
54	0x3f81329c	1.009357
55	0x3f7f2d95	0.9967893
56	0x3f811132	1.0083373
57	0x3f80d9e0	1.006649
58	0x3f82622f	1.0186213
59	0x3f80c0fc	1.0058894
60	0x3f803681	1.0016633
61	0x3f814a9b	1.0100893
62	0x3f80e720	1.0070534
63	0x3f81b5ec	1.0133643
64	0x3f7ddff2	0.9916984
65	0x3f7e9ea8	0.9946084
66	0x3f80e033	1.006842
67	0x3f7d6751	0.98985773
68	0x3f7ddf7d	0.9916914
69	0x3f81e81f	1.0148963
70	0x3f82bec3	1.0214466
71	0x3f81911f	1.0122412
72	0x3f7e5c74	0.9935982
73	0x3f812ecd	1.0092407
74	0x3f80dac5	1.0066763
75	0x3f806c62	1.0033076
76	0x3f8012d8	1.0005751
77	0x3f80d12a	1.0063832
78	0x3f7e4cc1	0.9933587
79	0x3f80be8c	1.005815
80	0x3f806a2a	1.0032399
81	0x3f7f7aed	0.99796945
82	0x3f80f46d	1.0074593
83	0x3f80f8f5	1.0075976
84	0x3f7ec0e3	0.9951307
85	0x3f800000	1.0
86	0x3f807f2a	1.0038807
87	0x3f821730	1.0163326
88	0x3f7f3090	0.99683475
89	0x3f7e00c1	0.992199
90	0x3f7f8e33	0.99826354
91	0x3f81ef21	1.0151101
92	0x3f814099	1.0097839
93	0x3f816e27	1.0111741
94	0x3f7edfdc	0.9956033
95	0x3f810fc0	1.0082932
96	0x3f7f3c1f	0.9970111
97	0x3f7fc821	0.9991475
98	0x3f7f6b09	0.997727
99	0x3f809aa3	1.0047191
100	0x3f81e750	1.0148716
101	0x3f80dc2d	1.0067192
102	0x3f80e2c9	1.0069209
103	0x3f815fd2	1.0107367
104	0x3f7fd843	0.99939364
105	0x3f80fc0d	1.007692
106	0x3f815cb5	1.0106417
107	0x3f812e90	1.0092335
108	0x3f80d273	1.0064224
109	0x3f7f237e	0.9966353
110	0x3f827e90	1.0194874
111	0x3f81455c	1.0099292
112	0x3f8117ff	1.0085448
113	0x3f80b29b	1.0054506
114	0x3f802885	1.0012366
115	0x3f7e1a6d	0.9925907
116	0x3f7f14b8	0.9964099
117	0x3f7f511f	0.99733156
118	0x3f7f095e	0.9962367
119	0x3f81370c	1.0094924
120	0x3f800615	1.0001856
121	0x3f81209c	1.0088077
122	0x3f801419	1.0006133
123	0x3f818daf	1.0121363
124	0x3f8206f1	1.0158368
125	0x3f803efb	1.001922
126	0x3f810810	1.0080585
127	0x3f7fe315	0.99955875

ln2.bias f4 [128]
0	0xbae013e0	-0.0017095767
1	0x3bc505df	0.006012663
2	0x3c859837	0.016307933
3	0x3c1982c4	0.009369556
4	0xbb19ba1a	-0.0023456872
5	0xbb6d0bca	-0.0036170357
6	0xbb6553f2	-0.0034992662
7	0xbb86e5e8	-0.0041167624
8	0xbb964ef6	-0.0045870496
9	0x3bdd786c	0.00675874
10	0xbb0ecbae	-0.0021788883
11	0xbabe4244	-0.0014515598
12	0x3b67b83a	0.003535761
13	0x3b9071be	0.0044080904
14	0xbba69439	-0.0050835875
15	0x3ace7785	0.0015752172
16	0xba699b9d	-0.0008911433
17	0x3bd25f17	0.006420027
18	0x3bdc576f	0.00672429
19	0x3948d0f3	0.00019151326
20	0x3bfbbd7c	0.0076825004
21	0x3a1afd25	0.0005912355
22	0x3bbcdb55	0.005763451
23	0x3bb4f267	0.0055220607
24	0x3c6cb46b	0.014447312
25	0xbb984878	-0.004647311
26	0x3a8fa526	0.0010959252
27	0xbbf73202	-0.007543803
28	0x3c072b2c	0.008250039
29	0x3ac1466c	0.0014745719
30	0x3bf0e61e	0.007351651
31	0x3b7cf5f4	0.0038598748
32	0x39ff72fc	0.0004872306
33	0xbbfed9fa	-0.0077774497
34	0x38d483aa	0.00010133472
35	0x3aad7980	0.0013235062
36	0x3c26198f	0.01013793
37	0x3b6ad80f	0.0035834347
38	0xbb1a4225	-0.002353796
39	0x3b0b2d54	0.0021236734
40	0x3bf5a6a6	0.0074966727
41	0x3c212baa	0.0098370705
42	0x3b0c250a	0.0021384382
43	0x3bf7abef	0.007558338
44	0xbbdbd5f0	-0.006708853
45	0xbb89f924	-0.004210608
46	0x3c8ef40f	0.01745036
47	0x3b53b3e0	0.0032303259
48	0x3bfba0b0	0.0076790676
49	0xbac58c06	-0.0015071637
50	0xbbcb7048	-0.0062084533
51	0xbc037972	-0.00802456
52	0x3c13ba44	0.009016577
53	0x3bd93b86	0.00662941
54	0x3bf5256f	0.007481269
55	0xbb9ff524	-0.004881518
56	0x3b95b100	0.004568219
57	0xba34f10e	-0.0006902375
58	0x3c4b0a99	0.012392663
59	0x3b3a7a31	0.002845418
60	0xba6915c1	-0.0008891486
61	0x3c5025ed	0.012704355
62	0x3bad46f0	0.0052879974
63	0x3b80d650	0.003931798
64	0xbc1008b0	-0.008791134
65	0xbb8ebd12	-0.004356035
66	0x3b0a40bf	0.002109572
67	0xbc2cabc1	-0.010538996
68	0xbc4f0721	-0.012635977
69	0x3c3407d9	0.010988199
70	0x3c588f47	0.013217754
71	0x3c2153ef	0.0098466715
72	0xbbbf449e	-0.005837037
73	0x3baf6887	0.005353037
74	0x3b845012	0.0040378654
75	0x3b737c30	0.003715288
76	0xba4f2a0a	-0.00079026876
77	0x3b89854d	0.004196799
78	0xbc4b6803	-0.012414935
79	0x3c087a04	0.008329872
80	0x3b96005c	0.0045776796
81	0x3a9fb673	0.0012185111
82	0x3b0c547b	0.002141266
83	0x3b9c65fa	0.0047728987
84	0xbbb52bb2	-0.0055288905
85	0x00000000	0.0
86	0xbb251956	-0.0025192103
87	0x3c3e5a29	0.011618176
88	0xbbec2514	-0.0072065685
89	0xbc2f5f67	-0.010703898
90	0x3af02e2a	0.0018324305
91	0x3c5ef704	0.013608698
92	0x3c05c256	0.008164009
93	0x3c34712e	0.011013312
94	0xba0344f5	-0.0005007529
95	0x3c108204	0.008820061
96	0xbb58b4d9	-0.0033066778
97	0xb9e22a6d	-0.0004313769
98	0x3b117c25	0.002219924
99	0x3a2643ac	0.00063424814
100	0x3c479d8e	0.01218356
101	0x3aac21e4	0.0013132659
102	0x3bd49df3	0.0064885556
103	0x3c2a1ec7	0.010383314
104	0xbb2de7fe	-0.0026535983
105	0x3bfb96fe	0.007677912
106	0x3c189af2	0.009314286
107	0x3badfbf7	0.0053095776
108	0x3bddf4aa	0.006773551
109	0xba3fe040	-0.00073194876
110	0x3c787e6c	0.01516686
111	0x3c22c408	0.009934433
112	0x3b89be1f	0.0042035724
113	0x3bcaf260	0.006193444
114	0x3b5ca5f7	0.0033668259
115	0xbb8ca26b	-0.0042918227
116	0xbb6b8e99	-0.003594315
117	0xbba0c342	-0.004906089
118	0x397209e7	0.00023082607
119	0x3bf6d871	0.007533126
120	0xbb5eb1ed	-0.0033980564
121	0x3bcf1549	0.006319676
122	0xbaff7113	-0.0019488655
123	0x3c28815c	0.010284748
124	0x3c68d642	0.014211239
125	0xbbb8fd65	-0.0056454414
126	0x3c190c82	0.009341361
127	0xba7a6f46	-0.0009553324

actor_mean.weight f4 [4, 128]
0	0xbb9fa905	-0.0048724436
1	0xbc8e2b9e	-0.017354783
2	0x3c76c53b	0.015061672
3	0xbc33ed4b	-0.010981868
4	0xbc12278f	-0.008920564
5	0x3bcc4cbd	0.006234734
6	0xbbf09cd3	-0.0073429137
7	0xbc0d82f2	-0.008637177
8	0xbb830d3d	-0.003999381
9	0x3a34d107	0.00068976026
10	0xbc36ba07	-0.011152751
11	0x3ad61b02	0.0016334953
12	0x3b7581a0	0.0037461296
13	0x3a00df83	0.00049161183
14	0xbba76e91	-0.005109616
15	0xbae08339	-0.0017128951
16	0x3c807c8e	0.015684392
17	0x3cba6759	0.022754358
18	0x3bc2d8bd	0.0059462474
19	0x3caae5c0	0.020861506
20	0xbca0722c	-0.019585691
21	0xbcb709e0	-0.022343576
22	0x3c05878f	0.0081499955
23	0xbc185e14	-0.009299774
24	0xbcbbf7e2	-0.022945348
25	0xbc41ed57	-0.011836371
26	0xba84f709	-0.0010144423
27	0x3bf45ddf	0.0074574794
28	0x3cc2639b	0.023729136
29	0x3cadbfed	0.021209681
30	0xbc8ac574	-0.016939856
31	0x3b5697b0	0.0032744221
32	0xbc215418	-0.00984671
33	0xbc9a93d6	-0.018869322
34	0xbc232f26	-0.0099599715
35	0x3c3b6eac	0.01143996
36	0xbc5018da	-0.012701238
37	0xbcd5bb8d	-0.026090408
38	0xba892f0a	-0.0010466289
39	0xbcc5e1e7	-0.02415557
40	0xbc3b0ab1	-0.011416123
41	0xbcac2940	-0.021015763
42	0x3bb0b416	0.0053925617
43	0xbcd7f3aa	-0.026361305
44	0x3c09eacd	0.008417797
45	0xbcbf661f	-0.023364125
46	0x3c9cf351	0.019158991
47	0x3b0fc136	0.002193523
48	0xbc9e5ab7	-0.019330366
49	0xbc086eaf	-0.00832717
50	0x3bdc61a2	0.006725506
51	0x3c0bcd9d	0.008532909
52	0x3c99aa62	0.018758003
53	0xbc1d227e	-0.009590743
54	0xbb892c90	-0.0041862205
55	0x3c47b8d4	0.012190063
56	0x38c44348	9.3585404e-05
57	0xbb932131	-0.0044900407
58	0xbc3b114d	-0.011417699
59	0xbc897f27	-0.016784264
60	0xbc946e1e	-0.018118914
61	0xbce80b86	-0.028325807
62	0x3c41a30f	0.011818661
63	0xbcbee7bc	-0.023303859
64	0xbc8f2c04	-0.017477043
65	0xba114438	-0.00055414764
66	0x3cabf37c	0.020990126
67	0x399046cd	0.0002751857
68	0xbb6e7824	-0.0036387527
69	0xbc0eaace	-0.008707715
70	0xbc9578c3	-0.01824606
71	0x3b08c576	0.002086965
72	0xbb4a92d2	-0.0030910266
73	0x3cbcdc0a	0.023054142
74	0x3c852563	0.016253179
75	0x3c60f004	0.013729099
76	0x3b71c10a	0.0036888742
77	0x3ce084f2	0.027407143
78	0xbc02fefd	-0.007995364
79	0x3b855f19	0.0040701744
80	0xbb59e517	-0.003324812
81	0xb9d855c4	-0.0004126263
82	0x3c7e93c4	0.01553816
83	0x3c509538	0.012730889
84	0xbc254f0b	-0.010089646
85	0xb8deedeb	-0.000106301006
86	0xbc304c8e	-0.01076044
87	0x3cc8b1af	0.024498789
88	0x3c677e0a	0.014129171
89	0x3be81167	0.0070821526
90	0x3bc53ad6	0.0060189767
91	0xbc62989c	-0.01383033
92	0x3cc1d29f	0.023660002
93	0xbb189c35	-0.0023286466
94	0x3c0478ec	0.008085471
95	0xbc8ff8a7	-0.017574621
96	0x3a8398a5	0.0010039998
97	0x3a31f359	0.0006788276
98	0x3c90481b	0.017612508
99	0x3c58dd25	0.013236319
100	0x3c177240	0.009243548
101	0xbc476cc5	-0.012171929
102	0xbca1f878	-0.0197718
103	0xbc852a0e	-0.016255405
104	0x3c8e3dcc	0.017363451
105	0xbcdb9580	-0.026804686
106	0x3ccadab4	0.024762489
107	0x3c97c8cd	0.018528366
108	0xbb00752c	-0.001960109
109	0xbca7088e	-0.020389821
110	0x3c3d5dbf	0.011557995
111	0x3b58247e	0.0032980735
112	0xbb9565d2	-0.004559257
113	0xbc93e3f5	-0.018053034
114	0x3b64cb68	0.0034911279
115	0x3aede82d	0.0018150859
116	0x3c30e6ce	0.010797216
117	0x3bfbb4da	0.0076814713
118	0x3b71c32b	0.003689001
119	0x3c1d10c0	0.009586513
120	0xbca003e7	-0.01953311
121	0x3c2cfd7e	0.010558484
122	0xbb5ac251	-0.0033379982
123	0x3cea4df5	0.028601626
124	0xbb12f3d7	-0.0022423172
125	0x3affc74f	0.0019514355
126	0x3bebad4e	0.0071922904
127	0xbce293ea	-0.027658422
128	0x3ae5d79e	0.0017535572
129	0xba83aec6	-0.0010046593
130	0xba0858d6	-0.0005201226
131	0x3aa5fb54	0.0012663403
132	0x39b6a2c1	0.00034835006
133	0x3b78f423	0.0037987314
134	0xb9b96440	-0.00035360642
135	0x3a8ba446	0.0010653816
136	0xba864913	-0.0010245166
137	0xb9b6799e	-0.00034804357
138	0x3994bb80	0.00028368458
139	0xbb0b25a6	-0.0021232157
140	0xbb0d8724	-0.0021595443
141	0x3ad023a7	0.0015879766
142	0xbaa1773c	-0.001231886
143	0xbad04cf3	-0.0015892073
144	0x39e7c1a9	0.00044204041
145	0x3903ad94	0.00012557796
146	0x3ae653d9	0.0017572596
147	0x39a90219	0.00032235755
148	0x3a171a8e	0.000576415
149	0x3bb63b53	0.005561271
150	0xbb445bf6	-0.002996204
151	0x3b0195fa	0.001977323
152	0xbb271923	-0.002549716
153	0x39db45f0	0.00041823043
154	0xba13fcad	-0.00056452566
155	0xba5789b6	-0.00082221196
156	0x3b8437ef	0.004034988
157	0x3a991eef	0.0011682193
158	0x392ab9cc	0.00016281678
159	0xbba97347	-0.005171213
160	0xbb2d4888	-0.0026440937
161	0x3b15401d	0.002277381
162	0x3a7890cf	0.00094820274
163	0x3a607885	0.00085628807
164	0x38d535be	0.00010166642
165	0xb7b2ec03	-2.1329155e-05
166	0x3a4e9581	0.0007880554
167	0x3aeb673e	0.0017959846
168	0xb9768279	-0.00023508993
169	0xbbb05fa7	-0.0053824964
170	0xbb619e9e	-0.0034426819
171	0x3afbd6fe	0.0019213853
172	0x3b40498d	0.0029340715
173	0x3b3c9b41	0.0028779062
174	0x396c2bc6	0.00022523021
175	0x3ad84a41	0.0016501622
176	0x3b085f40	0.0020808727
177	0x3a73055e	0.0009270514
178	0xb9b34841	-0.00034195374
179	0x38bec88b	9.09726e-05
180	0x3b915ee2	0.0044363597
181	0xbbae12d8	-0.005312305
182	0x3a87a774	0.0010349588
183	0x3a9d3b71	0.0011995864
184	0x39dcb4db	0.00042096418
185	0xba8eb7af	-0.0010888482
186	0xbb03cd0f	-0.0020111238
187	0xb96aad54	-0.00022380549
188	0x3b28b4d4	0.0025742548
189	0xbb1150d3	-0.002217342
190	0x3bbe628a	0.0058100866
191	0x3b232aab	0.0024897258
192	0x3ae7bd79	0.0017680369
193	0xb9c57d63	-0.00037668188
194	0x3b4a6b45	0.0030886692
195	0x3aa15b6f	0.0012310575
196	0x3aae3651	0.0013291334
197	0xb9f64f2c	-0.00046979764
198	0x3b03e248	0.0020123888
199	0x3ac83b1f	0.0015276409
200	0xbb620cfc	-0.0034492603
201	0x3ae7c31d	0.001768205
202	0x3b70f946	0.0036769672
203	0x3950594b	0.0001986969
204	0xba125f99	-0.0005583703
205	0x3b9c6b61	0.0047735428
206	0xbac9639b	-0.0015364768
207	0x3abc7d9b	0.0014380695
208	0xba8d0da1	-0.0010761508
209	0x3b6c0ec7	0.003601955
210	0x39b6bc51	0.00034854052
211	0xba392723	-0.0007063022
212	0x3b135a35	0.0022484188
213	0xb804dc03	-3.1676154e-05
214	0xba98a40d	-0.0011645571
215	0x3b230e68	0.0024880413
216	0x3a11b0cd	0.00055576564
217	0x3b21404d	0.0024604977
218	0x3ad8198a	0.0016487103
219	0x380a2912	3.2940014e-05
220	0x3b283c88	0.0025670845
221	0xbb7ff2ea	-0.00390547
222	0xba831655	-0.0010001162
223	0x3b2bb687	0.0026201324
224	0x3ab2ea45	0.001365014
225	0xba9f7b19	-0.0012167423
226	0xba228635	-0.0006199808
227	0x3a7eb94e	0.00097169436
228	0xbbb15a30	-0.0054123625
229	0xba6e741a	-0.000909628
230	0xba758895	-0.00093663606
231	0x3b1db0ef	0.002406176
232	0x3ad5f0c0	0.001632236
233	0x3adea5f9	0.001698672
234	0x3b16bea9	0.0023001826
235	0xbb197232	-0.0023414013
236	0x3a81ba65	0.0009897469
237	0xb9bf0595	-0.00036434518
238	0xbb25038a	-0.0025179111
239	0xb98577e6	-0.00025457068
240	0xbbf3d88b	-0.0074415854
241	0xba0ef266	-0.00054529903
242	0x3b0fd384	0.0021946141
243	0x3b815e5f	0.0039480175
244	0x3ab8f4b3	0.0014111012
245	0x3b3d66fb	0.0028900492
246	0x386a15a2	5.5810095e-05
247	0x3a14c723	0.00056754256
248	0x3a198e44	0.0005857686
249	0x3b011d78	0.0019701403
250	0xb7d3248f	-2.5170184e-05
251	0x3b2ad8b6	0.0026069111
252	0xbbd9447b	-0.006630478
253	0xb9cc94d7	-0.00039020806
254	0x3b4e7642	0.0031503593
255	0x3a9ec7b8	0.0012113964

actor_mean.bias f4 [4]
0	0xbaed8319	-0.0018120735
1	0x3a2eee74	0.00066731055
2	0x3c25e6a1	0.010125787
3	0x3ad0696a	0.0015900556

critic.weight f4 [1, 128]
0	0x3dcf7691	0.101300366
1	0x3db6b9cf	0.08922159
2	0xbb06014e	-0.0020447555
3	0xbc00aa30	-0.007853076
4	0x3cdf5ee1	0.027266921
5	0x3dc1fdf8	0.09472269
6	0x3e274bde	0.16337535
7	0x3d899f74	0.067198664
8	0x3ce73891	0.028225215
9	0xbd4bde7a	-0.049772717
10	0x3d8ac405	0.06775669
11	0xbb0b4682	-0.0021251743
12	0xbdeb4213	-0.11487212
13	0x3c1ecb85	0.0096920775
14	0x3e17ad6c	0.14812249
15	0xbd84c97e	-0.06483744
16	0x3dc9069d	0.098157145
17	0xbdee2666	-0.11628418
18	0xbd413656	-0.04717096
19	0x3e0e305f	0.1388564
20	0xbddf485a	-0.10902472
21	0xbe30d7e9	-0.17269863
22	0x3e1a59e0	0.15073347
23	0xbddcc2ed	-0.10779367
24	0x3c5b0425	0.013367687
25	0x3dbc6fc4	0.09201005
26	0xbd549ed6	-0.05190929
27	0x3d1ef8b1	0.03881139
28	0xbcef3cbd	-0.029203767
29	0x3d8a8b3a	0.067648366
30	0xbd81b716	-0.06333749
31	0x3e8d9eb7	0.27660152
32	0x3d3d354f	0.046193417
33	0x3dfe5943	0.12419369
34	0xbdb6cac1	-0.08925391
35	0xbd89808c	-0.067139715
36	0xba4a851b	-0.0007725523
37	0x3ca9eaa0	0.02074176
38	0x3d488141	0.04895139
39	0xbe3347ec	-0.17507905
40	0xbe043cd3	-0.12913828
41	0x3d20c1d3	0.039247345
42	0xbd996af8	-0.07491106
43	0xbcfebf81	-0.031097176
44	0x3c99507e	0.01871514
45	0x3db7db09	0.089773245
46	0xbb7bb56f	-0.0038407703
47	0xbc4b1cf3	-0.012397039
48	0xbdf962d2	-0.121770516
49	0x3c939315	0.01801447
50	0x3dffeef3	0.12496748
51	0x3df0051c	0.117197245
52	0xbdba077a	-0.09083457
53	0x3d3fc25f	0.046816226
54	0xbc551c9d	-0.01300731
55	0x3cb9a07c	0.022659533
56	0xbe544a3a	-0.2073144
57	0x3d6ea3d9	0.058261726
58	0xba5da905	-0.0008455667
59	0xbe26f27f	-0.16303442
60	0x3c116ed6	0.008876523
61	0xbd36f45a	-0.044666626
62	0xbe2f4759	-0.1711706
63	0xbd2a57df	-0.041587707
64	0x3d4ee3b6	0.05051013
65	0x3b8733b1	0.004126035
66	0x3c4c9987	0.012487776
67	0x3d541dbd	0.051786173
68	0x3d8545d7	0.065074615
69	0xbd78c4f3	-0.0607347
70	0xbc8f4485	-0.017488727
71	0xbd89f915	-0.06736962
72	0x3ba5eafb	0.0050634122
73	0xbd008830	-0.03137988
74	0xbca51d7f	-0.020155666
75	0x3dae829d	0.08521006
76	0x3d7310df	0.05934226
77	0xbdf6d690	-0.12052643
78	0x3d8660e6	0.06561451
79	0xbcabcf36	-0.02097283
80	0xbd8dd088	-0.0692454
81	0x3db8e217	0.09027498
82	0xbdf48dc6	-0.11941104
83	0xbd837da0	-0.064204454
84	0x3dfd1698	0.12357825
85	0x3d4f0766	0.050544165
86	0x3d2cc81d	0.04218303
87	0xbce9d6bc	-0.028544776
88	0x3de43233	0.11142387
89	0x3e127bb1	0.14304997
90	0xbc473699	-0.012159013
91	0xbcf861fc	-0.03032016
92	0xbd5222ae	-0.051302604
93	0x3d229e55	0.03970178
94	0x3d5f6169	0.054536257
95	0x3c1f79c6	0.009733623
96	0x3daad31c	0.08341047
97	0xbdaae242	-0.083439365
98	0x3d125314	0.03572376
99	0xbe435cec	-0.19078416
100	0x3d83b324	0.06430653
101	0x3e2763e8	0.16346705
102	0xbd955973	-0.07292452
103	0xbe60aff7	-0.21942125
104	0x3db2a341	0.087225445
105	0xbcc337a7	-0.023830248
106	0xbdc88f76	-0.09792988
107	0x3d7cf906	0.061760925
108	0xbe44019b	-0.19141237
109	0x3e115c43	0.14195351
110	0x3ca52514	0.020159282
111	0xbd1d551f	-0.038411256
112	0xbdb31781	-0.087447174
113	0xbd905ec6	-0.070493266
114	0xbd008e75	-0.031385858
115	0xbca17bb9	-0.019712316
116	0x3e1c7ffa	0.15283194
117	0x3de64ad9	0.11244745
118	0xbd95a64e	-0.07307111
119	0xbc754bea	-0.014971713
120	0x3d8da62e	0.06916462
121	0xbb2d529e	-0.0026446949
122	0xbd92d8a6	-0.07170229
123	0xbd8e91d9	-0.06961412
124	0x3d03d91a	0.032189466
125	0x3d6c6d5b	0.057721477
126	0xbdcd9d07	-0.10039716
127	0x3d3a41ec	0.045473024

exp_avg f4 [4]
0	0xbb271dca	-0.0025499933
1	0xb8f55308	-0.00011697976
2	0x3bf50172	0.007476979
3	0x3b33160a	0.0027326369

exp_avg_sq f4 [4]
0	0x3864bfb0	5.453796e-05
1	0x3853c8e8	5.049343e-05
2	0x38903736	6.876739e-05
3	0x384b3f41	4.845788e-05
